Running 04_12_19_test_foo
Runnning in conda env cs478project
Using TensorFlow backend.
Number of unique characters in our whole tunes database = 67
_________________________________________________________________
Layer (type)                 Output Shape              Param #   
=================================================================
embedding_1 (Embedding)      (16, 64, 512)             34304     
_________________________________________________________________
lstm_1 (LSTM)                (16, 64, 256)             787456    
_________________________________________________________________
dropout_1 (Dropout)          (16, 64, 256)             0         
_________________________________________________________________
time_distributed_1 (TimeDist (16, 64, 67)              17219     
_________________________________________________________________
activation_1 (Activation)    (16, 64, 67)              0         
=================================================================
Total params: 838,979
Trainable params: 838,979
Non-trainable params: 0
_________________________________________________________________

 None
Total number of characters = 83542
Epoch 1/80
2019-04-12 21:33:05.711117: I tensorflow/core/platform/cpu_feature_guard.cc:137] Your CPU supports instructions that this TensorFlow binary was not compiled to use: AVX
…
