…
2019-04-13 00:22:16.048881: I tensorflow/core/platform/cpu_feature_guard.cc:137] Your CPU supports instructions that this TensorFlow binary was not compiled to use: AVX
2019-04-13 00:22:16.068671: E tensorflow/stream_executor/cuda/cuda_driver.cc:406] failed call to cuInit: CUDA_ERROR_UNKNOWN
2019-04-13 00:22:16.068763: I tensorflow/stream_executor/cuda/cuda_diagnostics.cc:145] kernel driver does not appear to be running on this host (c1916.crane.hcc.unl.edu): /proc/driver/nvidia/version does not exist
_________________________________________________________________
Layer (type)                 Output Shape              Param #   
=================================================================
embedding_1 (Embedding)      (16, 64, 512)             34304     
_________________________________________________________________
lstm_1 (LSTM)                (16, 64, 256)             787456    
_________________________________________________________________
dropout_1 (Dropout)          (16, 64, 256)             0         
_________________________________________________________________
lstm_2 (LSTM)                (16, 64, 256)             525312    
_________________________________________________________________
dropout_2 (Dropout)          (16, 64, 256)             0         
_________________________________________________________________
time_distributed_1 (TimeDist (16, 64, 67)              17219     
_________________________________________________________________
activation_1 (Activation)    (16, 64, 67)              0         
=================================================================
Total params: 1,364,291
Trainable params: 1,364,291
Non-trainable params: 0
_________________________________________________________________

 None
Total number of characters = 83542
Epoch 1/80
Batch: 1, Loss: 4.8843278884887695, Accuracy: 0.0078125
Batch: 2, Loss: 4.104091167449951, Accuracy: 0.0244140625
Batch: 3, Loss: 3.660763740539551, Accuracy: 0.1416015625
…
