Running 04_13_19_3layer_lstm_many2many
Runnning in conda env cs478project
Using TensorFlow backend.
Number of unique characters in our whole tunes database = 67
_________________________________________________________________
Layer (type)                 Output Shape              Param #   
=================================================================
embedding_1 (Embedding)      (16, 64, 512)             34304     
_________________________________________________________________
lstm_1 (LSTM)                (16, 64, 128)             328192    
_________________________________________________________________
dropout_1 (Dropout)          (16, 64, 128)             0         
_________________________________________________________________
lstm_2 (LSTM)                (16, 64, 256)             394240    
_________________________________________________________________
dropout_2 (Dropout)          (16, 64, 256)             0         
_________________________________________________________________
lstm_3 (LSTM)                (16, 64, 128)             197120    
_________________________________________________________________
dropout_3 (Dropout)          (16, 64, 128)             0         
_________________________________________________________________
time_distributed_1 (TimeDist (16, 64, 67)              8643      
_________________________________________________________________
activation_1 (Activation)    (16, 64, 67)              0         
=================================================================
Total params: 962,499
Trainable params: 962,499
Non-trainable params: 0
_________________________________________________________________

 None
Total number of characters = 83542
Epoch 1/130
2019-04-13 16:10:17.654942: I tensorflow/core/platform/cpu_feature_guard.cc:137] Your CPU supports instructions that this TensorFlow binary was not compiled to use: AVX
…
